…
otools==2.0.6+computecanada, scikit_learn==1.3.0+computecanada, setuptools==75.5.0, threadpoolctl==3.5.0+computecanada, torch==2.0.1+computecanada, torchvision==0.15.2+computecanada, tqdm==4.67.1+computecanada, types_python_dateutil==2.9.0.20241206, uri_template==1.3.0+computecanada, webcolors==24.11.1+computecanada, websocket_client==1.8.0+computecanada, wheel==0.45.1
  activators BashActivator,CShellActivator,FishActivator,NushellActivator,PowerShellActivator,PythonActivator
Parameter Grid Search:   0%|          | 0/64 [00:00<?, ?it/s]H_theta_new(
  (model_before_inject): Sequential(
    (0): Linear(in_features=30, out_features=500, bias=True)
    (1): ReLU()
    (2): Linear(in_features=500, out_features=500, bias=True)
    (3): ReLU()
  )
  (inject): Sequential(
    (0): Linear(in_features=30, out_features=500, bias=True)
    (1): ReLU()
    (2): Linear(in_features=500, out_features=500, bias=True)
    (3): ReLU()
    (4): Linear(in_features=500, out_features=2, bias=True)
  )
  (model_after_inject): Sequential(
    (0): Linear(in_features=500, out_features=500, bias=True)
    (1): ReLU()
    (2): Linear(in_features=500, out_features=500, bias=True)
    (3): ReLU()
    (4): Linear(in_features=500, out_features=2, bias=True)
  )
  (layer_norm): LayerNorm((500,), eps=1e-05, elementwise_affine=True)
)

Training run_1:   0%|          | 0/2500 [00:00<?, ?it/s][A
Training run_1:   0%|          | 1/2500 [00:02<1:45:15,  2.53s/it][A
Training run_1:   0%|          | 3/2500 [00:03<42:05,  1.01s/it]  [A
Training run_1:   0%|          | 5/2500 [00:04<30:11,  1.38it/s][A
Training run_1:   0%|          | 7/2500 [00:05<25:10,  1.65it/s][A
Training run_1:   0%|          | 9/2500 [00:06<22:42,  1.83it/s][A
…
Training run_1: 100%|â–ˆâ–ˆâ–ˆâ–ˆâ–ˆâ–ˆâ–ˆâ–ˆâ–ˆâ–‰| 2495/2500 [18:49<00:02,  2.18it/s][A
Training run_1: 100%|â–ˆâ–ˆâ–ˆâ–ˆâ–ˆâ–ˆâ–ˆâ–ˆâ–ˆâ–‰| 2497/2500 [18:50<00:01,  2.21it/s][A
Training run_1: 100%|â–ˆâ–ˆâ–ˆâ–ˆâ–ˆâ–ˆâ–ˆâ–ˆâ–ˆâ–‰| 2499/2500 [18:51<00:00,  2.23it/s][A
Training run_1: 100%|â–ˆâ–ˆâ–ˆâ–ˆâ–ˆâ–ˆâ–ˆâ–ˆâ–ˆâ–ˆ| 2500/2500 [18:51<00:00,  2.26it/s][ATraining run_1: 100%|â–ˆâ–ˆâ–ˆâ–ˆâ–ˆâ–ˆâ–ˆâ–ˆâ–ˆâ–ˆ| 2500/2500 [18:51<00:00,  2.21it/s]
Parameter Grid Search:   2%|â–         | 1/64 [18:53<19:50:18, 1133.63s/it]Completed training for parameter set 1/64
H_theta_new(
  (model_before_inject): Sequential(
    (0): Linear(in_features=30, out_features=2000, bias=True)
    (1): ReLU()
    (2): Linear(in_features=2000, out_features=2000, bias=True)
    (3): ReLU()
  )
  (inject): Sequential(
    (0): Linear(in_features=30, out_features=500, bias=True)
    (1): ReLU()
    (2): Linear(in_features=500, out_features=500, bias=True)
    (3): ReLU()
    (4): Linear(in_features=500, out_features=2, bias=True)
  )
  (model_after_inject): Sequential(
    (0): Linear(in_features=2000, out_features=2000, bias=True)
    (1): ReLU()
    (2): Linear(in_features=2000, out_features=2000, bias=True)
    (3): ReLU()
    (4): Linear(in_features=2000, out_features=2, bias=True)
  )
  (layer_norm): LayerNorm((2000,), eps=1e-05, elementwise_affine=True)
)

Training run_2:   0%|          | 0/2500 [00:00<?, ?it/s][A
Training run_2:   0%|          | 1/2500 [00:02<1:40:17,  2.41s/it][A
Training run_2:   0%|          | 2/2500 [00:02<51:52,  1.25s/it]  [A
Training run_2:   0%|          | 3/2500 [00:04<1:05:19,  1.57s/it][A
Training run_2:   0%|          | 4/2500 [00:05<46:06,  1.11s/it]  [A
Training run_2:   0%|          | 5/2500 [00:07<58:18,  1.40s/it][A
…
Training run_4: 100%|â–ˆâ–ˆâ–ˆâ–ˆâ–ˆâ–ˆâ–ˆâ–ˆâ–ˆâ–‰| 2497/2500 [50:48<00:02,  1.09it/s][A
Training run_4: 100%|â–ˆâ–ˆâ–ˆâ–ˆâ–ˆâ–ˆâ–ˆâ–ˆâ–ˆâ–‰| 2498/2500 [50:49<00:01,  1.38it/s][A
Training run_4: 100%|â–ˆâ–ˆâ–ˆâ–ˆâ–ˆâ–ˆâ–ˆâ–ˆâ–ˆâ–‰| 2499/2500 [50:50<00:00,  1.09it/s][A
Training run_4: 100%|â–ˆâ–ˆâ–ˆâ–ˆâ–ˆâ–ˆâ–ˆâ–ˆâ–ˆâ–ˆ| 2500/2500 [50:51<00:00,  1.21it/s][ATraining run_4: 100%|â–ˆâ–ˆâ–ˆâ–ˆâ–ˆâ–ˆâ–ˆâ–ˆâ–ˆâ–ˆ| 2500/2500 [50:51<00:00,  1.22s/it]
Parameter Grid Search:   6%|â–‹         | 4/64 [2:21:02<37:57:36, 2277.61s/it]Completed training for parameter set 4/64
H_theta_new(
  (model_before_inject): Sequential(
    (0): Linear(in_features=30, out_features=500, bias=True)
    (1): ReLU()
    (2): Linear(in_features=500, out_features=500, bias=True)
    (3): ReLU()
  )
  (inject): Sequential(
    (0): Linear(in_features=30, out_features=2000, bias=True)
    (1): ReLU()
    (2): Linear(in_features=2000, out_features=2000, bias=True)
    (3): ReLU()
    (4): Linear(in_features=2000, out_features=2, bias=True)
  )
  (model_after_inject): Sequential(
    (0): Linear(in_features=500, out_features=500, bias=True)
    (1): ReLU()
    (2): Linear(in_features=500, out_features=500, bias=True)
    (3): ReLU()
    (4): Linear(in_features=500, out_features=2, bias=True)
  )
  (layer_norm): LayerNorm((500,), eps=1e-05, elementwise_affine=True)
)

Training run_5:   0%|          | 0/2500 [00:00<?, ?it/s][A
Training run_5:   0%|          | 1/2500 [00:01<52:26,  1.26s/it][A
Training run_5:   0%|          | 3/2500 [00:02<29:17,  1.42it/s][A
Training run_5:   0%|          | 5/2500 [00:03<25:07,  1.66it/s][A
Training run_5:   0%|          | 7/2500 [00:04<23:27,  1.77it/s][A
Training run_5:   0%|          | 9/2500 [00:05<22:34,  1.84it/s][A
…
Training run_5: 100%|â–ˆâ–ˆâ–ˆâ–ˆâ–ˆâ–ˆâ–ˆâ–ˆâ–ˆâ–‰| 2497/2500 [22:30<00:01,  1.62it/s][A
Training run_5: 100%|â–ˆâ–ˆâ–ˆâ–ˆâ–ˆâ–ˆâ–ˆâ–ˆâ–ˆâ–‰| 2498/2500 [22:30<00:00,  2.15it/s][A
Training run_5: 100%|â–ˆâ–ˆâ–ˆâ–ˆâ–ˆâ–ˆâ–ˆâ–ˆâ–ˆâ–‰| 2499/2500 [22:31<00:00,  1.63it/s][A
Training run_5: 100%|â–ˆâ–ˆâ–ˆâ–ˆâ–ˆâ–ˆâ–ˆâ–ˆâ–ˆâ–ˆ| 2500/2500 [22:32<00:00,  1.64it/s][ATraining run_5: 100%|â–ˆâ–ˆâ–ˆâ–ˆâ–ˆâ–ˆâ–ˆâ–ˆâ–ˆâ–ˆ| 2500/2500 [22:32<00:00,  1.85it/s]
Parameter Grid Search:   8%|â–Š         | 5/64 [2:43:35<31:51:42, 1944.12s/it]Completed training for parameter set 5/64
H_theta_new(
  (model_before_inject): Sequential(
    (0): Linear(in_features=30, out_features=2000, bias=True)
    (1): ReLU()
    (2): Linear(in_features=2000, out_features=2000, bias=True)
    (3): ReLU()
  )
  (inject): Sequential(
    (0): Linear(in_features=30, out_features=2000, bias=True)
    (1): ReLU()
    (2): Linear(in_features=2000, out_features=2000, bias=True)
    (3): ReLU()
    (4): Linear(in_features=2000, out_features=2, bias=True)
  )
  (model_after_inject): Sequential(
    (0): Linear(in_features=2000, out_features=2000, bias=True)
    (1): ReLU()
    (2): Linear(in_features=2000, out_features=2000, bias=True)
    (3): ReLU()
    (4): Linear(in_features=2000, out_features=2, bias=True)
  )
  (layer_norm): LayerNorm((2000,), eps=1e-05, elementwise_affine=True)
)

Training run_6:   0%|          | 0/2500 [00:00<?, ?it/s][A
Training run_6:   0%|          | 1/2500 [00:01<1:17:36,  1.86s/it][A
Training run_6:   0%|          | 2/2500 [00:02<38:36,  1.08it/s]  [A
Training run_6:   0%|          | 3/2500 [00:03<49:36,  1.19s/it][A
Training run_6:   0%|          | 4/2500 [00:03<34:28,  1.21it/s][A
Training run_6:   0%|          | 5/2500 [00:05<44:22,  1.07s/it][A
…
Training run_8: 100%|â–ˆâ–ˆâ–ˆâ–ˆâ–ˆâ–ˆâ–ˆâ–ˆâ–ˆâ–‰| 2497/2500 [48:22<00:03,  1.11s/it][A
Training run_8: 100%|â–ˆâ–ˆâ–ˆâ–ˆâ–ˆâ–ˆâ–ˆâ–ˆâ–ˆâ–‰| 2498/2500 [48:23<00:01,  1.12it/s][A
Training run_8: 100%|â–ˆâ–ˆâ–ˆâ–ˆâ–ˆâ–ˆâ–ˆâ–ˆâ–ˆâ–‰| 2499/2500 [48:24<00:01,  1.11s/it][A
Training run_8: 100%|â–ˆâ–ˆâ–ˆâ–ˆâ–ˆâ–ˆâ–ˆâ–ˆâ–ˆâ–ˆ| 2500/2500 [48:25<00:00,  1.05s/it][ATraining run_8: 100%|â–ˆâ–ˆâ–ˆâ–ˆâ–ˆâ–ˆâ–ˆâ–ˆâ–ˆâ–ˆ| 2500/2500 [48:25<00:00,  1.16s/it]
Parameter Grid Search:  12%|â–ˆâ–Ž        | 8/64 [4:33:22<33:48:51, 2173.78s/it]Completed training for parameter set 8/64
H_theta_new(
  (model_before_inject): Sequential(
    (0): Linear(in_features=30, out_features=500, bias=True)
    (1): ReLU()
    (2): Linear(in_features=500, out_features=500, bias=True)
    (3): ReLU()
  )
  (inject): Sequential(
    (0): Linear(in_features=30, out_features=500, bias=True)
    (1): ReLU()
    (2): Linear(in_features=500, out_features=500, bias=True)
    (3): ReLU()
    (4): Linear(in_features=500, out_features=500, bias=True)
    (5): ReLU()
    (6): Linear(in_features=500, out_features=500, bias=True)
    (7): ReLU()
    (8): Linear(in_features=500, out_features=2, bias=True)
  )
  (model_after_inject): Sequential(
    (0): Linear(in_features=500, out_features=500, bias=True)
    (1): ReLU()
    (2): Linear(in_features=500, out_features=500, bias=True)
    (3): ReLU()
    (4): Linear(in_features=500, out_features=2, bias=True)
  )
  (layer_norm): LayerNorm((500,), eps=1e-05, elementwise_affine=True)
)

Training run_9:   0%|          | 0/2500 [00:00<?, ?it/s][A
Training run_9:   0%|          | 1/2500 [00:01<45:53,  1.10s/it][A
Training run_9:   0%|          | 3/2500 [00:01<24:22,  1.71it/s][A
Training run_9:   0%|          | 5/2500 [00:02<20:27,  2.03it/s][A
Training run_9:   0%|          | 7/2500 [00:03<20:14,  2.05it/s][A
Training run_9:   0%|          | 9/2500 [00:04<18:55,  2.19it/s][A
…
Training run_9: 100%|â–ˆâ–ˆâ–ˆâ–ˆâ–ˆâ–ˆâ–ˆâ–ˆâ–ˆâ–‰| 2495/2500 [17:26<00:02,  2.41it/s][A
Training run_9: 100%|â–ˆâ–ˆâ–ˆâ–ˆâ–ˆâ–ˆâ–ˆâ–ˆâ–ˆâ–‰| 2497/2500 [17:27<00:01,  2.41it/s][A
Training run_9: 100%|â–ˆâ–ˆâ–ˆâ–ˆâ–ˆâ–ˆâ–ˆâ–ˆâ–ˆâ–‰| 2499/2500 [17:28<00:00,  2.42it/s][A
Training run_9: 100%|â–ˆâ–ˆâ–ˆâ–ˆâ–ˆâ–ˆâ–ˆâ–ˆâ–ˆâ–ˆ| 2500/2500 [17:28<00:00,  2.30it/s][ATraining run_9: 100%|â–ˆâ–ˆâ–ˆâ–ˆâ–ˆâ–ˆâ–ˆâ–ˆâ–ˆâ–ˆ| 2500/2500 [17:28<00:00,  2.38it/s]
Parameter Grid Search:  14%|â–ˆâ–        | 9/64 [4:50:51<27:50:18, 1822.16s/it]Completed training for parameter set 9/64
H_theta_new(
  (model_before_inject): Sequential(
    (0): Linear(in_features=30, out_features=2000, bias=True)
    (1): ReLU()
    (2): Linear(in_features=2000, out_features=2000, bias=True)
    (3): ReLU()
  )
  (inject): Sequential(
    (0): Linear(in_features=30, out_features=500, bias=True)
    (1): ReLU()
    (2): Linear(in_features=500, out_features=500, bias=True)
    (3): ReLU()
    (4): Linear(in_features=500, out_features=500, bias=True)
    (5): ReLU()
    (6): Linear(in_features=500, out_features=500, bias=True)
    (7): ReLU()
    (8): Linear(in_features=500, out_features=2, bias=True)
  )
  (model_after_inject): Sequential(
    (0): Linear(in_features=2000, out_features=2000, bias=True)
    (1): ReLU()
    (2): Linear(in_features=2000, out_features=2000, bias=True)
    (3): ReLU()
    (4): Linear(in_features=2000, out_features=2, bias=True)
  )
  (layer_norm): LayerNorm((2000,), eps=1e-05, elementwise_affine=True)
)

Training run_10:   0%|          | 0/2500 [00:00<?, ?it/s][A
Training run_10:   0%|          | 1/2500 [00:01<1:09:38,  1.67s/it][A
Training run_10:   0%|          | 2/2500 [00:01<34:06,  1.22it/s]  [A
Training run_10:   0%|          | 3/2500 [00:03<43:58,  1.06s/it][A
Training run_10:   0%|          | 4/2500 [00:03<30:14,  1.38it/s][A
Training run_10:   0%|          | 5/2500 [00:04<39:18,  1.06it/s][A
…
Training run_12: 100%|â–ˆâ–ˆâ–ˆâ–ˆâ–ˆâ–ˆâ–ˆâ–ˆâ–ˆâ–‰| 2497/2500 [54:13<00:04,  1.50s/it][A
Training run_12: 100%|â–ˆâ–ˆâ–ˆâ–ˆâ–ˆâ–ˆâ–ˆâ–ˆâ–ˆâ–‰| 2498/2500 [54:14<00:02,  1.23s/it][A
Training run_12: 100%|â–ˆâ–ˆâ–ˆâ–ˆâ–ˆâ–ˆâ–ˆâ–ˆâ–ˆâ–‰| 2499/2500 [54:16<00:01,  1.50s/it][A
Training run_12: 100%|â–ˆâ–ˆâ–ˆâ–ˆâ–ˆâ–ˆâ–ˆâ–ˆâ–ˆâ–ˆ| 2500/2500 [54:17<00:00,  1.38s/it][ATraining run_12: 100%|â–ˆâ–ˆâ–ˆâ–ˆâ–ˆâ–ˆâ–ˆâ–ˆâ–ˆâ–ˆ| 2500/2500 [54:17<00:00,  1.30s/it]
Parameter Grid Search:  19%|â–ˆâ–‰        | 12/64 [6:50:19<32:38:32, 2259.86s/it]Completed training for parameter set 12/64
H_theta_new(
  (model_before_inject): Sequential(
    (0): Linear(in_features=30, out_features=500, bias=True)
    (1): ReLU()
    (2): Linear(in_features=500, out_features=500, bias=True)
    (3): ReLU()
  )
  (inject): Sequential(
    (0): Linear(in_features=30, out_features=2000, bias=True)
    (1): ReLU()
    (2): Linear(in_features=2000, out_features=2000, bias=True)
    (3): ReLU()
    (4): Linear(in_features=2000, out_features=2000, bias=True)
    (5): ReLU()
    (6): Linear(in_features=2000, out_features=2000, bias=True)
    (7): ReLU()
    (8): Linear(in_features=2000, out_features=2, bias=True)
  )
  (model_after_inject): Sequential(
    (0): Linear(in_features=500, out_features=500, bias=True)
    (1): ReLU()
    (2): Linear(in_features=500, out_features=500, bias=True)
    (3): ReLU()
    (4): Linear(in_features=500, out_features=2, bias=True)
  )
  (layer_norm): LayerNorm((500,), eps=1e-05, elementwise_affine=True)
)

Training run_13:   0%|          | 0/2500 [00:00<?, ?it/s][A
Training run_13:   0%|          | 1/2500 [00:02<1:36:25,  2.32s/it][A
Training run_13:   0%|          | 2/2500 [00:02<49:52,  1.20s/it]  [A
Training run_13:   0%|          | 3/2500 [00:05<1:13:14,  1.76s/it][A
Training run_13:   0%|          | 4/2500 [00:05<51:05,  1.23s/it]  [A
Training run_13:   0%|          | 5/2500 [00:07<1:02:11,  1.50s/it][A
…
Training run_13: 100%|â–ˆâ–ˆâ–ˆâ–ˆâ–ˆâ–ˆâ–ˆâ–ˆâ–ˆâ–‰| 2497/2500 [56:45<00:04,  1.52s/it][A
Training run_13: 100%|â–ˆâ–ˆâ–ˆâ–ˆâ–ˆâ–ˆâ–ˆâ–ˆâ–ˆâ–‰| 2498/2500 [56:45<00:02,  1.24s/it][A
Training run_13: 100%|â–ˆâ–ˆâ–ˆâ–ˆâ–ˆâ–ˆâ–ˆâ–ˆâ–ˆâ–‰| 2499/2500 [56:47<00:01,  1.52s/it][A
Training run_13: 100%|â–ˆâ–ˆâ–ˆâ–ˆâ–ˆâ–ˆâ–ˆâ–ˆâ–ˆâ–ˆ| 2500/2500 [56:48<00:00,  1.38s/it][ATraining run_13: 100%|â–ˆâ–ˆâ–ˆâ–ˆâ–ˆâ–ˆâ–ˆâ–ˆâ–ˆâ–ˆ| 2500/2500 [56:48<00:00,  1.36s/it]
Parameter Grid Search:  20%|â–ˆâ–ˆ        | 13/64 [7:47:08<36:56:51, 2608.07s/it]Completed training for parameter set 13/64
H_theta_new(
  (model_before_inject): Sequential(
    (0): Linear(in_features=30, out_features=2000, bias=True)
    (1): ReLU()
    (2): Linear(in_features=2000, out_features=2000, bias=True)
    (3): ReLU()
  )
  (inject): Sequential(
    (0): Linear(in_features=30, out_features=2000, bias=True)
    (1): ReLU()
    (2): Linear(in_features=2000, out_features=2000, bias=True)
    (3): ReLU()
    (4): Linear(in_features=2000, out_features=2000, bias=True)
    (5): ReLU()
    (6): Linear(in_features=2000, out_features=2000, bias=True)
    (7): ReLU()
    (8): Linear(in_features=2000, out_features=2, bias=True)
  )
  (model_after_inject): Sequential(
    (0): Linear(in_features=2000, out_features=2000, bias=True)
    (1): ReLU()
    (2): Linear(in_features=2000, out_features=2000, bias=True)
    (3): ReLU()
    (4): Linear(in_features=2000, out_features=2, bias=True)
  )
  (layer_norm): LayerNorm((2000,), eps=1e-05, elementwise_affine=True)
)

Training run_14:   0%|          | 0/2500 [00:00<?, ?it/s][A
Training run_14:   0%|          | 1/2500 [00:03<2:25:22,  3.49s/it][A
Training run_14:   0%|          | 2/2500 [00:04<1:19:23,  1.91s/it][A
Training run_14:   0%|          | 3/2500 [00:07<1:43:50,  2.50s/it][A
Training run_14:   0%|          | 4/2500 [00:08<1:15:18,  1.81s/it][A
Training run_14:   0%|          | 5/2500 [00:11<1:33:42,  2.25s/it][A
…
Training run_16: 100%|â–ˆâ–ˆâ–ˆâ–ˆâ–ˆâ–ˆâ–ˆâ–ˆâ–ˆâ–‰| 2497/2500 [1:31:24<00:07,  2.45s/it][A
Training run_16: 100%|â–ˆâ–ˆâ–ˆâ–ˆâ–ˆâ–ˆâ–ˆâ–ˆâ–ˆâ–‰| 2498/2500 [1:31:25<00:04,  2.05s/it][A
Training run_16: 100%|â–ˆâ–ˆâ–ˆâ–ˆâ–ˆâ–ˆâ–ˆâ–ˆâ–ˆâ–‰| 2499/2500 [1:31:29<00:02,  2.45s/it][A
Training run_16: 100%|â–ˆâ–ˆâ–ˆâ–ˆâ–ˆâ–ˆâ–ˆâ–ˆâ–ˆâ–ˆ| 2500/2500 [1:31:30<00:00,  2.20s/it][ATraining run_16: 100%|â–ˆâ–ˆâ–ˆâ–ˆâ–ˆâ–ˆâ–ˆâ–ˆâ–ˆâ–ˆ| 2500/2500 [1:31:30<00:00,  2.20s/it]
Parameter Grid Search:  25%|â–ˆâ–ˆâ–Œ       | 16/64 [11:46:45<54:15:41, 4069.61s/it]Completed training for parameter set 16/64
H_theta_new(
  (model_before_inject): Sequential(
    (0): Linear(in_features=30, out_features=500, bias=True)
    (1): ReLU()
    (2): Linear(in_features=500, out_features=500, bias=True)
    (3): ReLU()
    (4): Linear(in_features=500, out_features=500, bias=True)
    (5): ReLU()
  )
  (inject): Sequential(
    (0): Linear(in_features=30, out_features=500, bias=True)
    (1): ReLU()
    (2): Linear(in_features=500, out_features=500, bias=True)
    (3): ReLU()
    (4): Linear(in_features=500, out_features=2, bias=True)
  )
  (model_after_inject): Sequential(
    (0): Linear(in_features=500, out_features=500, bias=True)
    (1): ReLU()
    (2): Linear(in_features=500, out_features=500, bias=True)
    (3): ReLU()
    (4): Linear(in_features=500, out_features=500, bias=True)
    (5): ReLU()
    (6): Linear(in_features=500, out_features=2, bias=True)
  )
  (layer_norm): LayerNorm((500,), eps=1e-05, elementwise_affine=True)
)

Training run_17:   0%|          | 0/2500 [00:00<?, ?it/s][A
Training run_17:   0%|          | 1/2500 [00:01<55:31,  1.33s/it][A
Training run_17:   0%|          | 3/2500 [00:02<28:45,  1.45it/s][A
Training run_17:   0%|          | 5/2500 [00:03<23:54,  1.74it/s][A
Training run_17:   0%|          | 7/2500 [00:04<21:56,  1.89it/s][A
Training run_17:   0%|          | 9/2500 [00:05<20:56,  1.98it/s][A
…
Training run_17: 100%|â–ˆâ–ˆâ–ˆâ–ˆâ–ˆâ–ˆâ–ˆâ–ˆâ–ˆâ–‰| 2495/2500 [20:23<00:02,  1.94it/s][A
Training run_17: 100%|â–ˆâ–ˆâ–ˆâ–ˆâ–ˆâ–ˆâ–ˆâ–ˆâ–ˆâ–‰| 2497/2500 [20:24<00:01,  1.98it/s][A
Training run_17: 100%|â–ˆâ–ˆâ–ˆâ–ˆâ–ˆâ–ˆâ–ˆâ–ˆâ–ˆâ–‰| 2499/2500 [20:25<00:00,  2.01it/s][A
Training run_17: 100%|â–ˆâ–ˆâ–ˆâ–ˆâ–ˆâ–ˆâ–ˆâ–ˆâ–ˆâ–ˆ| 2500/2500 [20:26<00:00,  1.81it/s][ATraining run_17: 100%|â–ˆâ–ˆâ–ˆâ–ˆâ–ˆâ–ˆâ–ˆâ–ˆâ–ˆâ–ˆ| 2500/2500 [20:26<00:00,  2.04it/s]
Parameter Grid Search:  27%|â–ˆâ–ˆâ–‹       | 17/64 [12:07:13<41:58:19, 3214.88s/it]Completed training for parameter set 17/64
H_theta_new(
  (model_before_inject): Sequential(
    (0): Linear(in_features=30, out_features=2000, bias=True)
    (1): ReLU()
    (2): Linear(in_features=2000, out_features=2000, bias=True)
    (3): ReLU()
    (4): Linear(in_features=2000, out_features=2000, bias=True)
    (5): ReLU()
  )
  (inject): Sequential(
    (0): Linear(in_features=30, out_features=500, bias=True)
    (1): ReLU()
    (2): Linear(in_features=500, out_features=500, bias=True)
    (3): ReLU()
    (4): Linear(in_features=500, out_features=2, bias=True)
  )
  (model_after_inject): Sequential(
    (0): Linear(in_features=2000, out_features=2000, bias=True)
    (1): ReLU()
    (2): Linear(in_features=2000, out_features=2000, bias=True)
    (3): ReLU()
    (4): Linear(in_features=2000, out_features=2000, bias=True)
    (5): ReLU()
    (6): Linear(in_features=2000, out_features=2, bias=True)
  )
  (layer_norm): LayerNorm((2000,), eps=1e-05, elementwise_affine=True)
)

Training run_18:   0%|          | 0/2500 [00:00<?, ?it/s][A
Training run_18:   0%|          | 1/2500 [00:03<2:05:23,  3.01s/it][A
Training run_18:   0%|          | 2/2500 [00:03<1:07:18,  1.62s/it][A
Training run_18:   0%|          | 3/2500 [00:06<1:27:17,  2.10s/it][A
Training run_18:   0%|          | 4/2500 [00:06<1:03:19,  1.52s/it][A
Training run_18:   0%|          | 5/2500 [00:09<1:20:46,  1.94s/it][A
…
